backend/models/route_nn_model.pth (torch, 3598 bytes, 5 tensors)

layers.0.weight f4 [16, 4]
00000000: f0d7 18be 004f 483d 6861 38be 301c 4cbd
00000010: 8c11 863e 5134 1bbe 2853 a83d d768 abbe
00000020: 3d93 863e 308d 55bc 49a9 693e b308 4e3e
00000030: 0609 d3be 462a e6be c0eb 42be fc26 dfbe
00000040: d84e e33e b7bf a4bd 3a9f feba 824c 04bf
00000050: 85ca 923e 51bd 1c3f 263c d73d ab29 6f3f
00000060: f584 cabc 4cc8 a23e 269f 023e 9e36 543f
00000070: eaf9 113f c003 023e c739 b0be 3186 083f
00000080: 502c 723e 9e51 17be 1bf3 08be eacb 02be
00000090: 422f d0be b0da 803d 008e 57bc 560a d0be
000000a0: 8488 c83e 7074 753b adfc 0abe 25d3 39bc
000000b0: f621 e6bd 8e44 993e f38c 2abc faf8 6e3f
000000c0: d4c1 c73e 0802 be3d 136d b23e d82d 3a3e
000000d0: b7cd c83e 5945 703b ec8e c5be f760 f6be
000000e0: 6db0 b33e b918 8cbe 52a3 ac3e 8c0c 8fbe
000000f0: 3e7d b6be 3cd9 373e c0ae ff3d c882 54be
-0.14926124 0.048903465 -0.18005908 -0.04983157 0.26185262 -0.15156676 0.08218986 -0.33478424
0.2628421 -0.01303415 0.22818483 0.20120506 -0.41217822 -0.44954127 -0.19035244 -0.4358443
0.4439609 -0.08044379 -0.0019426115 -0.5167924 0.28670135 0.61226374 0.10509519 0.93422955
-0.024721602 0.3179344 0.12756023 0.8289584 0.57021964 0.12696743 -0.3441908 0.5332976
0.23649716 -0.14777228 -0.13373987 -0.127731 -0.40661055 0.06291711 -0.013156414 -0.40632886
0.39166653 0.0037453435 -0.1357295 -0.011341845 -0.11236946 0.29935116 -0.0104095815 0.9334866
0.39015067 0.09277731 0.34848842 0.1818155 0.39219448 0.0036662428 -0.38585603 -0.48120853
0.3509554 -0.27362612 0.33718354 -0.2793926 -0.35642427 0.17953962 0.12484503 -0.20753014

layers.0.bias f4 [16]
00000000: c4a3 a8be 58fd 2c3f d2cc e33e f0da 8a3e
00000010: be1b 713e 0977 0e3e 3318 c0be 15e7 3abf
00000020: 4893 573e 4033 2dbc 0dcf c83e bb27 82bd
00000030: 62ba e1be b6ff 59be d4e1 303f ec54 3cbe
-0.32937443 0.6757407 0.44492203 0.2712016 0.23545739 0.13912596 -0.37518463 -0.73008853
0.21052277 -0.010571301 0.39220467 -0.06355234 -0.4408751 -0.21288952 0.69094586 -0.1839177

layers.2.weight f4 [8, 16]
00000000: 30ee 1bbe 5c2e a23e 0979 7f3d 0011 843b
00000010: 2c3c 6d3e 8f31 c8be 3b7b 86be c5b3 07be
00000020: bd2c 883e 7e84 6b3e ee09 d0bc 0df6 cabe
00000030: 126b 5abd ab17 b3bd f294 923e a03a e53d
00000040: 90d1 923c 34fd 9cbe 4463 f4bd 4018 e5bb
00000050: 11e7 b5be 189e fa3e 1d1b 4e3e d375 123f
00000060: 4154 aebc 34fd 20be f6b1 073f 119a 173f
00000070: 4733 903e 2a1a 8dbe 70f5 02be f669 5bbe
00000080: 50fb cabd 3b89 d73e 3e69 22be 1458 16be
00000090: 24e2 b03e 0fa3 b3bc 4990 26be 038c a93d
000000a0: b089 67bd de2b 783e 586b 8f3e 74b5 b4bd
000000b0: 3470 2ebe fae6 763e db70 8e3e bc48 893d
000000c0: 0807 e73d ba7f 713e 32c7 75be 2839 453e
000000d0: 1e75 6fbe 000e 9f3b f050 073e 60c5 2fbc
000000e0: c046 2d3e a88f 0d3e 88eb 103d aec7 33be
000000f0: d45e 96bd ce2d 0b3e d0c2 11be 22a8 3c3e
00000100: 6885 583e 1820 81bd a8b3 60be 101a ee3c
00000110: 18ef b4bd c288 39be 0096 0f3e dc0e 09be
00000120: d8ed 6bbd 28f0 4cbe 9c32 d2bd 50a3 5bbe
00000130: 98af 67bd 38bc 4a3e 8ec7 4fbe 2e2c 65be
00000140: 0056 c9bb c29d dd3e 5fd0 54bb cc56 e73d
00000150: ec4e 533d fb98 153e 92fb 1abd dda0 e7be
00000160: 42b7 febd d084 eebd bd42 643e 3f46 d0be
00000170: 5f57 91bd f90e 943e 2195 553e 00ca d03a
00000180: b0ab 09be b0d1 39be 3c1c 9a3d 40b8 a43d
00000190: ca21 0c3e a83d 6c3d 724e 6bbe 428d 16be
000001a0: b809 493d 3c03 c73d b61c 1bbe 14ea ce3d
000001b0: 24e8 f2bd d871 2e3d 7eac 6cbe 3096 44bd
000001c0: 7e66 24be d278 19bd effc ac3c 24ad 59be
000001d0: d120 58bd 36b2 543c 00e6 6d3e c7cc d83e
000001e0: 0764 803d 8a5b 59be 5bad 4e3e 8624 933e
000001f0: 6352 3a3e 2836 43be 05b6 333e 8465 c5bd
-0.1522758 0.31675994 0.062371287 0.004030347 0.23167485 -0.3910031 -0.26265892 -0.1325217
0.26596633 0.2299976 -0.02539536 -0.39640847 -0.053324766 -0.08744749 0.2862926 0.111928225
0.017922193 -0.3066193 -0.11932996 -0.006991416 -0.35527852 0.4894874 0.2012753 0.57211035
-0.02128041 -0.1572159 0.5300592 0.5921946 0.28164122 -0.27559024 -0.1278894 -0.2142714
-0.09911215 0.42096886 -0.15860459 -0.14682037 0.34547532 -0.021928338 -0.16265978 0.08278658
-0.056527793 0.24235484 0.28011584 -0.08823672 -0.1703499 0.24111548 0.27820477 0.06703326
0.11280638 0.2358388 -0.24001768 0.19260085 -0.2338452 0.004853964 0.13214469 -0.01072821
0.1692152 0.13824332 0.03538087 -0.1755664 -0.07342306 0.13591692 -0.14234471 0.18423513
0.2114464 -0.063049495 -0.21943533 0.029065162 -0.08834666 -0.18118575 0.14022064 -0.13384575
-0.057599872 -0.20013487 -0.10263559 -0.21449018 -0.056563944 0.19798362 -0.20290968 -0.22380134
-0.006144285 0.43284422 -0.0032472832 0.11295852 0.051588938 0.14609139 -0.037837572 -0.45239916
-0.124372974 -0.11646426 0.22291084 -0.40678594 -0.07096743 0.28917673 0.2085767 0.0015929341
-0.134444 -0.18146396 0.075249165 0.080429554 0.13684765 0.057675987 -0.22979143 -0.14702323
0.049081534 0.09717414 -0.15147671 0.101032406 -0.118606836 0.04258904 -0.23112676 -0.047994792
-0.16054723 -0.03746874 0.021116702 -0.21257454 -0.05276567 0.012981942 0.2323227 0.42343733
0.06269079 -0.21226326 0.20183317 0.28738803 0.1819549 -0.19063628 0.17549904 -0.09638503

layers.2.bias f4 [8]
00000000: 0805 9c3e 6eeb 42be dd08 893e ac43 273e
00000010: 0016 d2bc db2e d03e 2032 7cbd f3f2 a4bd
0.3047259 -0.19035122 0.26764575 0.16334409 -0.025645256 0.40660748 -0.06157124 -0.080541514

layers.4.weight f4 [1, 8]
00000000: 8519 103f 99cf 00bf 3f41 343e b9ad 643e
00000010: 60e5 ab3e e786 233f 219b 18be a2ab 16be
0.5628894 -0.5031677 0.17603014 0.22331895 0.33573437 0.6387772 -0.14902927 -0.1471391
